…
[r007] 2025-06-18 22:26:24,137 (initialize:90) INFO: Initialize attractor.attractor_decoder.bias_ih_l0 to zeros
[r007] 2025-06-18 22:26:24,137 (initialize:90) INFO: Initialize attractor.attractor_decoder.bias_hh_l0 to zeros
[r007] 2025-06-18 22:26:24,137 (initialize:90) INFO: Initialize attractor.linear_projection.bias to zeros
[r007] 2025-06-18 22:26:24,298 (abs_task:1398) INFO: pytorch.version=1.13.1, cuda.available=False, cudnn.version=8500, cudnn.benchmark=False, cudnn.deterministic=True
[r007] 2025-06-18 22:26:24,316 (abs_task:1399) INFO: Model structure:
ESPnetDiarizationModel(
  (encoder): TransformerEncoder(
    (embed): Sequential(
      (0): Linear(in_features=80, out_features=256, bias=True)
      (1): LayerNorm((256,), eps=1e-05, elementwise_affine=True)
      (2): Dropout(p=0.1, inplace=False)
      (3): ReLU()
      (4): PositionalEncoding(
        (dropout): Dropout(p=0.1, inplace=False)
      )
    )
    (encoders): MultiSequential(
      (0): EncoderLayer(
        (self_attn): MultiHeadedAttention(
          (linear_q): Linear(in_features=256, out_features=256, bias=True)
          (linear_k): Linear(in_features=256, out_features=256, bias=True)
          (linear_v): Linear(in_features=256, out_features=256, bias=True)
          (linear_out): Linear(in_features=256, out_features=256, bias=True)
          (dropout): Dropout(p=0.1, inplace=False)
          (q_norm): Identity()
          (k_norm): Identity()
        )
        (feed_forward): PositionwiseFeedForward(
          (w_1): Linear(in_features=256, out_features=512, bias=True)
          (w_2): Linear(in_features=512, out_features=256, bias=True)
          (dropout): Dropout(p=0.1, inplace=False)
          (activation): ReLU()
        )
        (norm1): LayerNorm((256,), eps=1e-12, elementwise_affine=True)
        (norm2): LayerNorm((256,), eps=1e-12, elementwise_affine=True)
        (dropout): Dropout(p=0.1, inplace=False)
      )
      (1): EncoderLayer(
        (self_attn): MultiHeadedAttention(
          (linear_q): Linear(in_features=256, out_features=256, bias=True)
          (linear_k): Linear(in_features=256, out_features=256, bias=True)
          (linear_v): Linear(in_features=256, out_features=256, bias=True)
          (linear_out): Linear(in_features=256, out_features=256, bias=True)
          (dropout): Dropout(p=0.1, inplace=False)
          (q_norm): Identity()
          (k_norm): Identity()
        )
        (feed_forward): PositionwiseFeedForward(
          (w_1): Linear(in_features=256, out_features=512, bias=True)
          (w_2): Linear(in_features=512, out_features=256, bias=True)
          (dropout): Dropout(p=0.1, inplace=False)
          (activation): ReLU()
        )
        (norm1): LayerNorm((256,), eps=1e-12, elementwise_affine=True)
        (norm2): LayerNorm((256,), eps=1e-12, elementwise_affine=True)
        (dropout): Dropout(p=0.1, inplace=False)
      )
      (2): EncoderLayer(
        (self_attn): MultiHeadedAttention(
          (linear_q): Linear(in_features=256, out_features=256, bias=True)
          (linear_k): Linear(in_features=256, out_features=256, bias=True)
          (linear_v): Linear(in_features=256, out_features=256, bias=True)
          (linear_out): Linear(in_features=256, out_features=256, bias=True)
          (dropout): Dropout(p=0.1, inplace=False)
          (q_norm): Identity()
          (k_norm): Identity()
        )
        (feed_forward): PositionwiseFeedForward(
          (w_1): Linear(in_features=256, out_features=512, bias=True)
          (w_2): Linear(in_features=512, out_features=256, bias=True)
          (dropout): Dropout(p=0.1, inplace=False)
          (activation): ReLU()
        )
        (norm1): LayerNorm((256,), eps=1e-12, elementwise_affine=True)
        (norm2): LayerNorm((256,), eps=1e-12, elementwise_affine=True)
        (dropout): Dropout(p=0.1, inplace=False)
      )
      (3): EncoderLayer(
        (self_attn): MultiHeadedAttention(
          (linear_q): Linear(in_features=256, out_features=256, bias=True)
          (linear_k): Linear(in_features=256, out_features=256, bias=True)
          (linear_v): Linear(in_features=256, out_features=256, bias=True)
          (linear_out): Linear(in_features=256, out_features=256, bias=True)
          (dropout): Dropout(p=0.1, inplace=False)
          (q_norm): Identity()
          (k_norm): Identity()
        )
        (feed_forward): PositionwiseFeedForward(
          (w_1): Linear(in_features=256, out_features=512, bias=True)
          (w_2): Linear(in_features=512, out_features=256, bias=True)
          (dropout): Dropout(p=0.1, inplace=False)
          (activation): ReLU()
        )
        (norm1): LayerNorm((256,), eps=1e-12, elementwise_affine=True)
        (norm2): LayerNorm((256,), eps=1e-12, elementwise_affine=True)
        (dropout): Dropout(p=0.1, inplace=False)
      )
    )
    (after_norm): LayerNorm((256,), eps=1e-12, elementwise_affine=True)
  )
  (normalize): UtteranceMVN(norm_means=True, norm_vars=False)
  (frontend): DefaultFrontend(
    (stft): Stft(n_fft=512, win_length=512, hop_length=128, center=True, normalized=False, onesided=True)
    (frontend): Frontend()
    (logmel): LogMel(sr=8000, n_fft=512, n_mels=80, fmin=0, fmax=4000.0, htk=False)
  )
  (specaug): SpecAug(
    (freq_mask): MaskAlongAxis(mask_width_range=[0, 30], num_mask=2, axis=freq)
    (time_mask): MaskAlongAxis(mask_width_range=[0, 40], num_mask=2, axis=time)
  )
  (label_aggregator): LabelAggregate(win_length=512, hop_length=128, center=True, )
  (attractor): RnnAttractor(
    (attractor_encoder): LSTM(256, 256, batch_first=True, dropout=0.1)
    (attractor_decoder): LSTM(256, 256, batch_first=True, dropout=0.1)
    (dropout_layer): Dropout(p=0.1, inplace=False)
    (linear_projection): Linear(in_features=256, out_features=1, bias=True)
  )
  (decoder): None
)

Model summary:
    Class Name: ESPnetDiarizationModel
    Total Number of model parameters: 3.18 M
    Number of trainable parameters: 3.18 M (100.0%)
    Size: 12.73 MB
    Type: torch.float32
[r007] 2025-06-18 22:26:24,317 (abs_task:1402) INFO: Optimizer:
Adam (
Parameter Group 0
    amsgrad: False
    betas: (0.9, 0.999)
    capturable: False
…
